name: "FCN"
input: "data"
input_shape {
  dim: 1
  dim: 3
  dim: 500
  dim: 500
}
layer { 
    bottom: "data" 
    top: "conv1_1" 
    name: "conv1_1" 
    type: "Convolution"
    convolution_param { 
        num_output: 64 
        pad: 1
        kernel_size: 3
    } 
}
layer { 
    bottom: "conv1_1" 
    top: "conv1_1" 
    name: "relu1_1" 
    type: "ReLU"
}
layer { 
    bottom: "conv1_1" 
    top: "conv1_2" 
    name: "conv1_2"
    type: "Convolution"
    convolution_param { 
        num_output: 64 
        pad: 1 
        kernel_size: 3 
    }
}
layer { 
    bottom: "conv1_2" 
    top: "conv1_2" 
    name: "relu1_2" 
    type: "ReLU" 
}
layer { 
    name: "pool1" 
    bottom: "conv1_2" 
    top: "pool1" 
    type: "Pooling"
    pooling_param { 
        pool: MAX 
        kernel_size: 2 
        stride: 2 
    }
}
layer { 
    name: "conv2_1" 
    bottom: "pool1" 
    top: "conv2_1" 
    type: "Convolution"
    convolution_param {
        num_output: 128 
        pad: 1
        kernel_size: 3 
    }
}
layer {
    bottom: "conv2_1"
    top: "conv2_1"
    name: "relu2_1"
    type: "ReLU"
}
layer {
    bottom: "conv2_1"
    top: "conv2_2"
    name: "conv2_2"
    type: "Convolution"
    convolution_param {
        engine: CAFFE
        num_output: 128
        pad: 1
        kernel_size: 3
    }
}
layer {
    bottom: "conv2_2"
    top: "conv2_2"
    name: "relu2_2"
    type: "ReLU"
}
layer { 
    bottom: "conv2_2"
    top: "pool2"
    name: "pool2"
    type: "Pooling"
    pooling_param {
        pool: MAX
        kernel_size: 2
        stride: 2
    }
}
layer {
    bottom: "pool2"
    top: "conv3_1"
    name: "conv3_1"
    type: "Convolution"
    convolution_param {
        engine: CAFFE
        num_output: 256
        pad: 1
        kernel_size: 3
    }
}
layer {
    bottom: "conv3_1"
    top: "conv3_1"
    name: "relu3_1"
    type: "ReLU"
}
layer {
    bottom: "conv3_1"
    top: "conv3_2"
    name: "conv3_2"
    type: "Convolution"
    convolution_param {
        engine: CAFFE
        num_output: 256
        pad: 1
        kernel_size: 3
    }
}
layer {
    bottom: "conv3_2"
    top: "conv3_2"
    name: "relu3_2"
    type: "ReLU" 
}
layer {
    bottom: "conv3_2"
    top: "conv3_3"
    name: "conv3_3"
    type: "Convolution"
    convolution_param {
        engine: CAFFE
        num_output: 256
        pad: 1
        kernel_size: 3
    }
}
layer {
    bottom: "conv3_3"
    top: "conv3_3"
    name: "relu3_3"
    type: "ReLU" 
}
layer {
    bottom: "conv3_3" 
    top: "pool3" 
    name: "pool3" 
    type: "Pooling"
    pooling_param { 
        pool: MAX 
        kernel_size: 2 
        stride: 2 
    }
}
layer {
    bottom: "pool3"
    top: "conv4_1"
    name: "conv4_1" 
    type: "Convolution"
    convolution_param { 
        engine: CAFFE 
        num_output: 512 
        pad: 1 
        kernel_size: 3 
    }
}
layer {
    bottom: "conv4_1"
    top: "conv4_1"
    name: "relu4_1"
    type: "ReLU"
}
layer {
    bottom: "conv4_1"
    top: "conv4_2"
    name: "conv4_2"
    type: "Convolution"
    convolution_param {
        engine: CAFFE
        num_output: 512
        pad: 1
        kernel_size: 3
    }
}
layer {
    bottom: "conv4_2"
    top: "conv4_2"
    name: "relu4_2"
    type: "ReLU"
}
layer {
    bottom: "conv4_2"
    top: "conv4_3"
    name: "conv4_3"
    type: "Convolution"
    convolution_param {
        engine: CAFFE
        num_output: 512
        pad: 1
        kernel_size: 3
    }
}
layer {
    bottom: "conv4_3"
    top: "conv4_3"
    name: "relu4_3"
    type: "ReLU"
}
layer {
    bottom: "conv4_3"
    top: "pool4"
    name: "pool4"
    type: "Pooling"
    pooling_param {
        pool: MAX
        kernel_size: 2
        stride: 2
    }
}
layer {
    bottom: "pool4"
    top: "conv5_1"
    name: "conv5_1"
    type: "Convolution"
    convolution_param {
        engine: CAFFE
            num_output: 512
            pad: 1
            kernel_size: 3
    }
}
layer {
    bottom: "conv5_1"
    top: "conv5_1"
    name: "relu5_1"
    type: "ReLU" 
}
layer {
    bottom: "conv5_1"
    top: "conv5_2"
    name: "conv5_2"
    type: "Convolution"
    convolution_param {
        engine: CAFFE
        num_output: 512
        pad: 1
        kernel_size: 3
    }
}
layer {
    bottom: "conv5_2"
    top: "conv5_2"
    name: "relu5_2"
    type: "ReLU" 
}
layer {
    bottom: "conv5_2"
    top: "conv5_3"
    name: "conv5_3"
    type: "Convolution"
    convolution_param { 
        engine: CAFFE
        num_output: 512
        pad: 1
        kernel_size: 3
    }
}
layer {
    bottom: "conv5_3"
    top: "conv5_3"
    name: "relu5_3"
    type: "ReLU" 
}
layer {
    bottom: "conv5_3"
    top: "pool5"
    name: "pool5"
    type: "Pooling"
    pooling_param { 
        pool: MAX 
        kernel_size: 2 
        stride: 2 
    }
}
layer {
    bottom: "pool5"
    top: "fc6"
    name: "fc6"
    type: "Convolution"
    convolution_param {
        engine: CAFFE
        kernel_size: 1
        num_output: 4096
    }
}
layer {
    bottom: "fc6"
    top: "fc6"
    name: "relu6"
    type: "ReLU" 
}
layer {
    bottom: "fc6"
    top: "fc6"
    name: "drop6"
    type: "Dropout"
    dropout_param {
        dropout_ratio: 0.5 
    }
}
layer {
    bottom: "fc6"
    top: "fc7"
    name: "fc7"
    type: "Convolution"
    convolution_param {
        engine: CAFFE
        kernel_size: 1
        num_output: 4096
    }
}
layer { 
    bottom: "fc7" 
    top: "fc7" 
    name: "relu7"
    type: "ReLU"
}
layer { 
    bottom: "fc7"
    top: "fc7"
    name: "drop7"
    type: "Dropout"
    dropout_param {
        dropout_ratio: 0.5
    }
}
layer {
    name: "score-fr"
    type: "Convolution"
    bottom: "fc7"
    top: "score"
    convolution_param {
        engine: CAFFE
        num_output: 21
        kernel_size: 1
    }
}

layer {
    type: "Deconvolution"
    name: "score2"
    bottom: "score"
    top: "score2"
    convolution_param {
        kernel_size: 4
        stride: 2
        num_output: 21
    }
}

layer { 
    name: "score-pool4"
    type: "Convolution"
    bottom: "pool4"
    top: "score-pool4"
    convolution_param {
        engine: CAFFE 
        num_output: 21
        kernel_size: 1
    }
}

layer {
    type: "Crop"
    name: "crop"
    bottom: "score-pool4"
    bottom: "score2"
    top: "score-pool4c"
}

layer {
    type: "Eltwise"
    name: "score-fused"
    bottom: "score2"
    bottom: "score-pool4c"
    top: "score-fused"
    eltwise_param { 
        operation: SUM
    }
}

layer { 
    type: "Deconvolution"
    name: "score4"
    bottom: "score-fused"
    top: "score4"
    convolution_param {
        kernel_size: 4
        stride: 2
        num_output: 21 
    }
}

layer {
    name: "score-pool3"
    type: "Convolution"
    bottom: "pool3"
    top: "score-pool3"
    convolution_param { 
        engine: CAFFE
        num_output: 21
        kernel_size: 1 
    }
}

layer {
    type: "Crop"
    name: "crop"
    bottom: "score-pool3"
    bottom: "score4"
    top: "score-pool3c" 
}

layer { 
    type: "Eltwise"
    name: "fuse"
    bottom: "score4"
    bottom: "score-pool3c"
    top: "score-final"
    eltwise_param {
        operation: SUM
    }
}

layer { 
    type: "Deconvolution"
    name: "upsample"
    bottom: "score-final"
    top: "bigscore"
    convolution_param { 
        kernel_size: 16
        stride: 8 
        num_output: 21
    }
}

layer {
    type: "Crop"
    name: "crop"
    bottom: "bigscore"
    bottom: "data"
    top: "upscore" 
}
